ml/cnn_results/CNN_13-34-43.pt (torch, 467841 bytes, 22 tensors)

conv1.weight f4 [3, 1, 1, 3]
-0.49002612 0.08862597 0.47056067 -0.12400073 0.30567724 0.19652486 -0.51240134 -0.19126529
0.13722312
00000000: b4e4 fabe 8881 b53d 54ed f03e 18f4 fdbd
00000010: ba81 9c3e d03d 493e bc2c 03bf 0cdb 43be
00000020: 3884 0c3e

conv1.bias f4 [3]
0.4282068 -0.42089653 0.34065193
00000000: ec3d db3e c07f d7be ee69 ae3e

conv2.weight f4 [6, 3, 1, 3]
-0.20966494 -0.15541264 -0.10893278 0.19034621 -0.03576699 -0.0014646053 -0.18431787 -0.14304337
0.27538398 -0.10200617 -0.22741422 0.26637426 0.054018468 -0.3217133 0.3093917 0.22495201
0.24950436 -0.2947373 0.29503188 -0.21484745 -0.1560981 0.12026012 -0.18891947 0.090165764
-0.31308982 0.3271419 0.05925587 0.08213845 0.09273592 0.21835783 -0.30776128 0.008846045
-0.13413906 -0.00808236 0.15030858 -0.13849823 0.18779692 0.31167635 -0.08262217 -0.1640676
0.118322164 0.16378343 0.029764771 -0.007980734 0.04604909 -0.06493667 -0.20716207 -0.266309
-0.17287597 0.14780626 -0.25693807 0.12029329 0.25453708 -0.06220439
00000000: 68b2 56be 7e24 1fbe 2618 dfbd 1eea 423e
00000010: 6880 12bd 00f8 bfba d3bd 3cbe f679 12be
00000020: 21ff 8c3e 9ce8 d0bd 46df 68be 3562 883e
00000030: 7842 5d3d 9bb7 a4be 9768 9e3e d259 663e
00000040: 127e 7f3e cfe7 96be 6b0e 973e f800 5cbe
00000050: 2ed8 1fbe f04a f63d 1b74 41be d4a8 b83d
00000060: 4f4d a0be 257f a73e 48b6 723d 3438 a83d
00000070: 54ec bd3d 3299 5f3e e392 9dbe 00ef 103c
00000080: c05b 09be e06b 04bc 7eea 193e 7bd2 0dbe
00000090: d64d 403e 0b94 9f3e d035 a9bd 5601 28be
000000a0: e452 f23d d8b6 273e 40d5 f33c a0c1 02bc
000000b0: f89d 3c3d 84fd 84bd 4b22 54be a759 88be
000000c0: 6606 31be 865a 173e 638d 83be 545c f63d
000000d0: af52 823e 08ca 7ebd

conv2.bias f4 [6]
-0.29927313 0.2864779 -0.16688177 -0.10316615 0.2238014 0.166031
00000000: 543a 99be 3bad 923e 0ee3 2abe c648 d3bd
00000010: 322c 653e 0804 2a3e

conv3.weight f4 [12, 6, 1, 3]
-0.119274095 0.19159527 0.031191126 0.035631374 -0.19582218 0.13724841 -0.21242708 0.06234698
-0.21857063 0.07441659 -0.10371651 0.09182514 0.21745162 -0.058546215 0.13693543 0.1878214
0.011181369 0.1378477 0.19172888 0.1558782 0.113223776 -0.04008384 0.17937343 0.16219811
0.10523172 -0.0839223 0.122051045 0.14691906 0.1274953 -0.20923236 0.1781825 -0.084879234
0.13233943 -0.12102726 -0.002177447 -0.04835497 0.14887498 -0.19428161 0.18220417 -0.15522859
-0.060332343 0.22534634 0.2345389 -0.13536242 0.14160131 0.14246614 0.0053954422 0.21316226
-0.023906201 0.07269277 0.13977943 0.18093343 0.005037844 -0.0090928525 -0.04557462 -0.16142356
0.11373465 0.017592207 -0.1792531 0.005426064 0.13618605 0.23525716 -0.20825641 0.109866396
-0.062841624 -0.19849859 -0.18977445 -0.18724906 0.10443993 -0.14877518 -0.11946075 0.0077049434
0.21997993 0.15047722 -0.053978935 0.07083677 0.08717285 -0.026491687 -0.03785871 0.17320044
0.00893724 -0.14476979 -0.0837899 0.12136035 -0.086484775 -0.03869921 -0.18884102 -0.09772208
-0.012137398 -0.07452308 0.17099611 -0.077269554 -0.074202105 -0.1298919 0.11131646 -0.15847796
-0.15887086 -0.07598163 -0.15932798 -0.18652335 -0.10971451 -0.13932785 -0.14625572 0.22338982
0.013742402 0.105351314 -0.024733856 0.042691007 0.00081661344 0.0693133 0.06372033 -0.22521234
-0.12685242 0.04917337 -0.190664 0.12334378 0.0620438 0.032941237 0.012959138 0.07612197
-0.1336907 0.064512745 -0.20266671 -0.18094157 0.06454225 -0.009963661 0.092328176 -0.039800927
0.0054819584 0.022636816 0.23275016 0.18443434 -0.042439967 -0.19393826 0.06086074 0.030615255
0.14310278 -0.030169725 0.08979608 -0.14171997 0.06552698 0.16420673 0.22323959 0.09071861
0.21881203 -0.013451189 -0.03532639 0.15867214 0.116424486 -0.1322347 0.0010130107 0.052320436
0.059776828 0.05163701 -0.16333236 -0.22647281 0.1524434 -0.014385387 0.16733275 -0.07700282
-0.15919057 -0.011848122 -0.012380183 0.06080763 -0.07159853 -0.10239203 -0.0401603 -0.080681115
-0.17075588 -0.19505121 -0.13658158 -0.09172717 -0.14344177 -0.11958542 -0.1003032 0.1878467
0.1970319 0.21371968 -0.10923083 0.09665625 -0.113582246 -0.14390685 0.061468884 0.22509424
-0.0728399 -0.09375404 0.1758054 0.17361562 0.08878483 -0.03100729 -0.066073954 -0.11884518
-0.08033766 -0.21351504 -0.16126904 -0.19641772 -0.068470314 0.00832279 -0.13539091 -0.19568147
-0.014704421 0.015312418 0.15041016 0.19851135 -0.0817866 -0.11544222 0.012498304 0.22136481
-0.12287995 0.07605611 -0.070255876 -0.21486935 -0.13806869 -0.08565652 0.012424529 -0.017611966
00000000: fa45 f4bd 8d31 443e 8884 ff3c 34f2 113d
00000010: 9c85 48be d98a 0c3e 7c86 59be 8c5f 7f3d
00000020: fbd0 5fbe ba67 983d 5269 d4bd d20e bc3d
00000030: a3ab 5e3e 28ce 6fbd cd38 0c3e 4154 403e
00000040: 1032 373c f327 0d3e 9354 443e 899e 1f3e
00000050: dee1 e73d f42e 24bd abad 373e 4317 263e
00000060: ba83 d73d 74df abbd e6f5 f93d f371 163e
00000070: 218e 023e 0241 56be 7975 363e 2ad5 adbd
00000080: fd83 073e 24dd f7bd 80b3 0ebb dc0f 46bd
00000090: af72 183e c2f1 46be bb93 3a3e 3ef4 1ebe
000000a0: 0c1f 77bd 31c1 663e f72a 703e 729c 0abe
000000b0: efff 103e a5e2 113e 40cc b03b 3547 5a3e
000000c0: f0d6 c3bc f2df 943d 5722 0f3e 9d46 393e
000000d0: 8014 a53b 30fa 14bc 74ac 3abd 384c 25be
000000e0: b6ed e83d 881d 903c 208e 37be 20cd b13b
000000f0: 5b74 0b3e 41e7 703e 2b41 55be a201 e13d
00000100: 1cb3 80bd 3743 4bbe 3c54 42be 38be 3fbe
00000110: 9ae4 d53d 8558 18be d6a7 f4bd c079 fc3b
00000120: 6b42 613e b316 1a3e 0419 5dbd de12 913d
00000130: ae87 b23d 1805 d9bc bc11 1bbd 755b 313e
00000140: 806d 123c 883e 14be 0a9a abbd c68b f83d
00000150: ee1e b1bd 1083 1ebd 8a5f 41be 8422 c8bd
00000160: f0db 46bc 8e9f 98bd 9b19 2f3e 803f 9ebd
00000170: 46f7 97bd 6202 05be e2f9 e33d 0c48 22be
00000180: 0baf 22be 429c 9bbd e026 23be faff 3ebe
00000190: 00b2 e0bd f6ab 0ebe 0fc4 15be 4dc0 643e
000001a0: d027 613c 6ec2 d73d a89e cabc c4dc 2e3d
000001b0: 0012 563a 22f4 8d3d ce7f 823d 109e 66be
000001c0: 9ae5 01be 046a 493d 6c3d 43be aa9b fc3d
000001d0: a421 7e3d 64ed 063d 9052 543c d6e5 9b3d
000001e0: 37e6 08be 421f 843d dd87 4fbe bf48 39be
000001f0: ba2e 843d a03e 23bc 8e16 bd3d 4c06 23bd
00000200: 00a2 b33b d870 b93c 0f56 6e3e 5bdc 3c3e
00000210: 88d5 2dbd c097 46be 1c49 793d d8cc fa3c
00000220: 8989 123e 8026 f7bc 02e7 b73d 0a1f 11be
00000230: 0233 863d cf25 283e eb98 643e aeca b93d
00000240: 4310 603e 6062 5cbc 68b2 10bd f37a 223e
00000250: f66f ee3d 8868 07be 00c7 843a f44d 563d
00000260: 8cd8 743d 5481 533d 9940 27be 7de8 67be
00000270: 1f1a 1c3e b0b0 6bbc 4759 2b3e a8b3 9dbd
00000280: da02 23be a01e 42bc 40d6 4abc 6c11 793d
00000290: 40a2 92bd eab2 d1bd 207f 24bd 243c a5bd
000002a0: a1da 2ebe 81bb 47be 0bdc 0bbe 74db bbbd
000002b0: 66e2 12be 33e9 f4bd c46b cdbd e35a 403e
000002c0: bbc2 493e 55d9 5a3e 6ab4 dfbd b6f3 c53d
000002d0: cf9d e8bd 515c 13be ccc6 7b3d 1b7f 663e
000002e0: 162d 95bd 1e02 c0bd 5506 343e 4bc8 313e
000002f0: d2d4 b53d 0003 febc c851 87bd 1a65 f3bd
00000300: 1288 a4bd b0a3 5abe b623 25be ba21 49be
00000310: 2a3a 8cbd 505c 083c eaa3 0abe b960 48be
00000320: d0ea 70bc f0e0 7a3c 1f05 1a3e 8f46 4b3e
00000330: bc7f a7bd f86c ecbd b0c5 4c3c 75ad 623e
00000340: 7ca8 fbbd 4ec3 9b3d 50e2 8fbd b606 5cbe
00000350: e161 0dbe b06c afbd 4090 4b3c f846 90bc

conv3.bias f4 [12]
-0.0028314888 0.083484486 0.2343174 -0.20686656 0.18578897 -0.09748833 -0.20049739 0.058597073
-0.033145204 -0.06762588 0.03342603 0.013846397
00000000: 8090 39bb eaf9 aa3d e7f0 6f3e d4d4 53be
00000010: 773f 3e3e f6a7 c7bd 304f 4dbe 7c03 703d
00000020: 44c3 07bd 707f 8abd bce9 083d 00dc 623c

conv_block.0.weight f4 [3, 1, 1, 3]
-0.49002612 0.08862597 0.47056067 -0.12400073 0.30567724 0.19652486 -0.51240134 -0.19126529
0.13722312
00000000: b4e4 fabe 8881 b53d 54ed f03e 18f4 fdbd
00000010: ba81 9c3e d03d 493e bc2c 03bf 0cdb 43be
00000020: 3884 0c3e

conv_block.0.bias f4 [3]
0.4282068 -0.42089653 0.34065193
00000000: ec3d db3e c07f d7be ee69 ae3e

conv_block.3.weight f4 [6, 3, 1, 3]
-0.20966494 -0.15541264 -0.10893278 0.19034621 -0.03576699 -0.0014646053 -0.18431787 -0.14304337
0.27538398 -0.10200617 -0.22741422 0.26637426 0.054018468 -0.3217133 0.3093917 0.22495201
0.24950436 -0.2947373 0.29503188 -0.21484745 -0.1560981 0.12026012 -0.18891947 0.090165764
-0.31308982 0.3271419 0.05925587 0.08213845 0.09273592 0.21835783 -0.30776128 0.008846045
-0.13413906 -0.00808236 0.15030858 -0.13849823 0.18779692 0.31167635 -0.08262217 -0.1640676
0.118322164 0.16378343 0.029764771 -0.007980734 0.04604909 -0.06493667 -0.20716207 -0.266309
-0.17287597 0.14780626 -0.25693807 0.12029329 0.25453708 -0.06220439
00000000: 68b2 56be 7e24 1fbe 2618 dfbd 1eea 423e
00000010: 6880 12bd 00f8 bfba d3bd 3cbe f679 12be
00000020: 21ff 8c3e 9ce8 d0bd 46df 68be 3562 883e
00000030: 7842 5d3d 9bb7 a4be 9768 9e3e d259 663e
00000040: 127e 7f3e cfe7 96be 6b0e 973e f800 5cbe
00000050: 2ed8 1fbe f04a f63d 1b74 41be d4a8 b83d
00000060: 4f4d a0be 257f a73e 48b6 723d 3438 a83d
00000070: 54ec bd3d 3299 5f3e e392 9dbe 00ef 103c
00000080: c05b 09be e06b 04bc 7eea 193e 7bd2 0dbe
00000090: d64d 403e 0b94 9f3e d035 a9bd 5601 28be
000000a0: e452 f23d d8b6 273e 40d5 f33c a0c1 02bc
000000b0: f89d 3c3d 84fd 84bd 4b22 54be a759 88be
000000c0: 6606 31be 865a 173e 638d 83be 545c f63d
000000d0: af52 823e 08ca 7ebd

conv_block.3.bias f4 [6]
-0.29927313 0.2864779 -0.16688177 -0.10316615 0.2238014 0.166031
00000000: 543a 99be 3bad 923e 0ee3 2abe c648 d3bd
00000010: 322c 653e 0804 2a3e

conv_block.6.weight f4 [12, 6, 1, 3]
-0.119274095 0.19159527 0.031191126 0.035631374 -0.19582218 0.13724841 -0.21242708 0.06234698
-0.21857063 0.07441659 -0.10371651 0.09182514 0.21745162 -0.058546215 0.13693543 0.1878214
0.011181369 0.1378477 0.19172888 0.1558782 0.113223776 -0.04008384 0.17937343 0.16219811
0.10523172 -0.0839223 0.122051045 0.14691906 0.1274953 -0.20923236 0.1781825 -0.084879234
0.13233943 -0.12102726 -0.002177447 -0.04835497 0.14887498 -0.19428161 0.18220417 -0.15522859
-0.060332343 0.22534634 0.2345389 -0.13536242 0.14160131 0.14246614 0.0053954422 0.21316226
-0.023906201 0.07269277 0.13977943 0.18093343 0.005037844 -0.0090928525 -0.04557462 -0.16142356
0.11373465 0.017592207 -0.1792531 0.005426064 0.13618605 0.23525716 -0.20825641 0.109866396
-0.062841624 -0.19849859 -0.18977445 -0.18724906 0.10443993 -0.14877518 -0.11946075 0.0077049434
0.21997993 0.15047722 -0.053978935 0.07083677 0.08717285 -0.026491687 -0.03785871 0.17320044
0.00893724 -0.14476979 -0.0837899 0.12136035 -0.086484775 -0.03869921 -0.18884102 -0.09772208
-0.012137398 -0.07452308 0.17099611 -0.077269554 -0.074202105 -0.1298919 0.11131646 -0.15847796
-0.15887086 -0.07598163 -0.15932798 -0.18652335 -0.10971451 -0.13932785 -0.14625572 0.22338982
0.013742402 0.105351314 -0.024733856 0.042691007 0.00081661344 0.0693133 0.06372033 -0.22521234
-0.12685242 0.04917337 -0.190664 0.12334378 0.0620438 0.032941237 0.012959138 0.07612197
-0.1336907 0.064512745 -0.20266671 -0.18094157 0.06454225 -0.009963661 0.092328176 -0.039800927
0.0054819584 0.022636816 0.23275016 0.18443434 -0.042439967 -0.19393826 0.06086074 0.030615255
0.14310278 -0.030169725 0.08979608 -0.14171997 0.06552698 0.16420673 0.22323959 0.09071861
0.21881203 -0.013451189 -0.03532639 0.15867214 0.116424486 -0.1322347 0.0010130107 0.052320436
0.059776828 0.05163701 -0.16333236 -0.22647281 0.1524434 -0.014385387 0.16733275 -0.07700282
-0.15919057 -0.011848122 -0.012380183 0.06080763 -0.07159853 -0.10239203 -0.0401603 -0.080681115
-0.17075588 -0.19505121 -0.13658158 -0.09172717 -0.14344177 -0.11958542 -0.1003032 0.1878467
0.1970319 0.21371968 -0.10923083 0.09665625 -0.113582246 -0.14390685 0.061468884 0.22509424
-0.0728399 -0.09375404 0.1758054 0.17361562 0.08878483 -0.03100729 -0.066073954 -0.11884518
-0.08033766 -0.21351504 -0.16126904 -0.19641772 -0.068470314 0.00832279 -0.13539091 -0.19568147
-0.014704421 0.015312418 0.15041016 0.19851135 -0.0817866 -0.11544222 0.012498304 0.22136481
-0.12287995 0.07605611 -0.070255876 -0.21486935 -0.13806869 -0.08565652 0.012424529 -0.017611966
00000000: fa45 f4bd 8d31 443e 8884 ff3c 34f2 113d
00000010: 9c85 48be d98a 0c3e 7c86 59be 8c5f 7f3d
00000020: fbd0 5fbe ba67 983d 5269 d4bd d20e bc3d
00000030: a3ab 5e3e 28ce 6fbd cd38 0c3e 4154 403e
00000040: 1032 373c f327 0d3e 9354 443e 899e 1f3e
00000050: dee1 e73d f42e 24bd abad 373e 4317 263e
00000060: ba83 d73d 74df abbd e6f5 f93d f371 163e
00000070: 218e 023e 0241 56be 7975 363e 2ad5 adbd
00000080: fd83 073e 24dd f7bd 80b3 0ebb dc0f 46bd
00000090: af72 183e c2f1 46be bb93 3a3e 3ef4 1ebe
000000a0: 0c1f 77bd 31c1 663e f72a 703e 729c 0abe
000000b0: efff 103e a5e2 113e 40cc b03b 3547 5a3e
000000c0: f0d6 c3bc f2df 943d 5722 0f3e 9d46 393e
000000d0: 8014 a53b 30fa 14bc 74ac 3abd 384c 25be
000000e0: b6ed e83d 881d 903c 208e 37be 20cd b13b
000000f0: 5b74 0b3e 41e7 703e 2b41 55be a201 e13d
00000100: 1cb3 80bd 3743 4bbe 3c54 42be 38be 3fbe
00000110: 9ae4 d53d 8558 18be d6a7 f4bd c079 fc3b
00000120: 6b42 613e b316 1a3e 0419 5dbd de12 913d
00000130: ae87 b23d 1805 d9bc bc11 1bbd 755b 313e
00000140: 806d 123c 883e 14be 0a9a abbd c68b f83d
00000150: ee1e b1bd 1083 1ebd 8a5f 41be 8422 c8bd
00000160: f0db 46bc 8e9f 98bd 9b19 2f3e 803f 9ebd
00000170: 46f7 97bd 6202 05be e2f9 e33d 0c48 22be
00000180: 0baf 22be 429c 9bbd e026 23be faff 3ebe
00000190: 00b2 e0bd f6ab 0ebe 0fc4 15be 4dc0 643e
000001a0: d027 613c 6ec2 d73d a89e cabc c4dc 2e3d
000001b0: 0012 563a 22f4 8d3d ce7f 823d 109e 66be
000001c0: 9ae5 01be 046a 493d 6c3d 43be aa9b fc3d
000001d0: a421 7e3d 64ed 063d 9052 543c d6e5 9b3d
000001e0: 37e6 08be 421f 843d dd87 4fbe bf48 39be
000001f0: ba2e 843d a03e 23bc 8e16 bd3d 4c06 23bd
00000200: 00a2 b33b d870 b93c 0f56 6e3e 5bdc 3c3e
00000210: 88d5 2dbd c097 46be 1c49 793d d8cc fa3c
00000220: 8989 123e 8026 f7bc 02e7 b73d 0a1f 11be
00000230: 0233 863d cf25 283e eb98 643e aeca b93d
00000240: 4310 603e 6062 5cbc 68b2 10bd f37a 223e
00000250: f66f ee3d 8868 07be 00c7 843a f44d 563d
00000260: 8cd8 743d 5481 533d 9940 27be 7de8 67be
00000270: 1f1a 1c3e b0b0 6bbc 4759 2b3e a8b3 9dbd
00000280: da02 23be a01e 42bc 40d6 4abc 6c11 793d
00000290: 40a2 92bd eab2 d1bd 207f 24bd 243c a5bd
000002a0: a1da 2ebe 81bb 47be 0bdc 0bbe 74db bbbd
000002b0: 66e2 12be 33e9 f4bd c46b cdbd e35a 403e
000002c0: bbc2 493e 55d9 5a3e 6ab4 dfbd b6f3 c53d
000002d0: cf9d e8bd 515c 13be ccc6 7b3d 1b7f 663e
000002e0: 162d 95bd 1e02 c0bd 5506 343e 4bc8 313e
000002f0: d2d4 b53d 0003 febc c851 87bd 1a65 f3bd
00000300: 1288 a4bd b0a3 5abe b623 25be ba21 49be
00000310: 2a3a 8cbd 505c 083c eaa3 0abe b960 48be
00000320: d0ea 70bc f0e0 7a3c 1f05 1a3e 8f46 4b3e
00000330: bc7f a7bd f86c ecbd b0c5 4c3c 75ad 623e
00000340: 7ca8 fbbd 4ec3 9b3d 50e2 8fbd b606 5cbe
00000350: e161 0dbe b06c afbd 4090 4b3c f846 90bc

conv_block.6.bias f4 [12]
-0.0028314888 0.083484486 0.2343174 -0.20686656 0.18578897 -0.09748833 -0.20049739 0.058597073
-0.033145204 -0.06762588 0.03342603 0.013846397
00000000: 8090 39bb eaf9 aa3d e7f0 6f3e d4d4 53be
00000010: 773f 3e3e f6a7 c7bd 304f 4dbe 7c03 703d
00000020: 44c3 07bd 707f 8abd bce9 083d 00dc 623c

linear1.weight f4 [256, 192]
-0.04990805 0.011866398 -0.034077663 0.02976548 -0.021583974 -0.037386175 0.026750848 -0.005073458
-0.066751994 0.040345743 -0.054816615 0.020714037 0.028032586 0.03826829 -0.06586579 -0.020742442
-0.013202231 0.012247153 -0.05850358 0.032427765 -0.01050939 0.0055077597 -0.019401602 -0.040499937
-0.03030384 0.0076546073 -0.0166552 0.035987698 -0.06174677 0.03766136 -0.064139046 -0.036950715
-0.058098506 0.013703644 -0.017578244 0.07085182 -0.07055375 -0.014607742 0.06277493 0.00886476
0.07080202 -0.006706327 -0.030457985 -0.06102257 0.056000218 -0.02530364 -0.061030783 -0.036139786
0.051771015 0.025579467 -0.03963012 0.066368446 0.04096877 0.031768985 0.010271363 -0.014181439
0.02909828 0.052016795 0.043995254 0.05122018 -0.018684767 -0.04042421 0.019792452 -0.05701724
-0.06185382 -0.048964314 -0.067291625 -0.05366108 -0.0202652 0.04687319 -0.037421387 0.07180159
0.04564576 -0.056088947 -0.04658497 0.042101897 -0.0593557 0.021362066 -0.06517415 -0.014063168
0.004934959 0.06866209 -0.066686876 -0.023650631 0.029684119 0.05529307 -0.060949184 -0.06412721
-0.040668126 -0.010996416 0.021271668 0.042692937 0.05065559 -0.05068183 0.001052767 -0.04348475
-0.01274541 -0.0057058483 -0.04926773 0.06265859 -0.038162448 0.038960308 -0.045932025 -0.026264995
0.009105429 0.017565086 -0.048653886 -0.02338076 0.031038016 0.047833942 0.035889342 0.06238936
-0.019682549 0.045540795 0.009911299 -0.046022177 -0.060620498 0.029751547 -0.068596065 0.019954443
-0.03144569 0.068431035 -0.060066864 -0.019737333 0.05560869 0.050697714 0.0032007843 -0.056636207
0.024318293 0.054342404 -0.009860709 -0.001009889 -0.013873883 0.05125703 -0.0526295 -0.020774938
-0.071785666 0.020936362 -0.010822736 0.011769533 -0.009219907 -0.059083436 -0.027197622 0.010720156
0.06063828 -0.05020497 -0.06541907 -0.026882607 -0.061778814 -0.017218295 -0.055837616 0.0119677335
0.0055073127 0.06797241 0.005213432 0.06561656 -0.026792653 -0.03887796 -0.046538368 0.008533515
-0.021554362 -0.058364097 0.000527747 0.053978324 -0.047048174 -0.026208084 0.031779468 0.0373253
0.02336558 -0.052549656 0.0067539066 -0.056551896 0.05784732 0.0493332 0.05743727 -0.06286139
0.038257793 -0.039588712 -0.03619962 0.010934234 0.046053976 -0.03696582 -0.028724972 0.025886156
0.02355598 -0.029864114 0.0100630745 0.05040455 0.008926012 -0.018162709 0.017340884 0.028113693
0.040499024 -0.053241715 -0.06031001 -0.039235204 0.04404322 0.05731374 -0.0019318908 0.023702115
-0.03725175 0.001847811 0.025929414 -0.034305733 0.01137279 0.011855729 0.05637279 0.044768758
-0.038569782 0.01927466 -0.011290893 -0.016553354 -0.067757465 0.056217298 -0.009326704 0.030040778
0.021787785 -0.068824895 0.034366854 -0.043764576 0.028513707 -0.04930837 0.05421433 0.0415008
-0.059180245 0.016386367 -0.053580508 -0.05941108 0.054203898 0.015046194 0.039985098 0.07037267
0.020337388 -0.047590494 -0.033009704 0.007834822 -0.060479887 -0.0627185 0.0023314133 -0.01108126
0.033347137 -0.052099787 -0.009493023 0.06478648 -0.068659596 -0.07124919 0.05768761 -0.0025923923
-0.052552976 -0.0054290444 0.001398705 0.041777804 0.06553516 -0.030288585 0.044752546 -0.015711445
00000000: 626c 4cbd 486b 423c 0595 0bbd bcd6 f33c
00000010: e0d0 b0bc 3f22 19bd 9824 db3c 403f a6bb
00000020: 45b5 88bd 9441 253d 6387 60bd 7cb0 a93c
00000030: 98a4 e53c 36bf 1c3d a5e4 86bd 0eec a9bc
00000040: 2c4e 58bc 48a8 483c 73a1 6fbd fad2 043d
00000050: 942f 2cbc 707a b43b 1cf0 9ebc 43e3 25bd
00000060: c23f f8bc 80d3 fa3b 7c70 88bc d667 133d
00000070: 2eea 7cbd cc42 1a3d 555b 83bd a259 17bd
00000080: b3f8 6dbd 4085 603c 4000 90bc c21a 913d
00000090: 7c7e 90bd 5055 6fbc 2490 803d 803d 113c
000000a0: a600 913d c0c0 dbbb 0683 f9bc cdf2 79bd
000000b0: 7c60 653d 9449 cfbc 6afb 79bd 5007 14bd
000000c0: d80d 543d 088c d13c 3153 22bd 2eec 873d
000000d0: dece 273d 3220 023d 3849 283c 4459 68bc
000000e0: 845f ee3c 900f 553d 5e34 343d 40cc 513d
000000f0: cc10 99bc db93 25bd c823 a23c e98a 69bd
00000100: 6e5a 7dbd ce8e 48bd 31d0 89bd b8cb 5bbd
00000110: 3403 a6bc 1afe 3f3d 2b47 19bd b60c 933d
00000120: 0cf7 3a3d 86bd 65bd e2cf 3ebd 0a73 2c3d
00000130: f61e 73bd 80ff ae3c 067a 85bd 3469 66bc
00000140: 70b5 a13b b69e 8c3d 2193 88bd f8be c1bc
00000150: 1c2c f33c fc7a 623d daa5 79bd 2055 83bd
00000160: 9f93 26bd 502a 34bc ec41 ae3c cade 2e3d
00000170: 3c7c 4f3d c097 4fbd 00fd 893a 111d 32bd
00000180: 20d2 50bc 20f8 babb f6cc 49bd 2653 803d
00000190: 3a50 1cbd d894 1f3d 3823 3cbd b029 d7bc
000001a0: f02e 153c a8e4 8f3c 4c49 47bd 0289 bfbc
000001b0: 7043 fe3c 86ed 433d b400 133d fc8b 7f3d
000001c0: 4c3d a1bc fc88 3a3d 0063 223c c081 3cbd
000001d0: 334d 78bd 84b9 f33c 187c 8cbd 8077 a33c
000001e0: 32cd 00bd 9225 8c3d ac08 76bd 30b0 a1bc
000001f0: f0c5 633d 68a8 4f3d 40c4 513b 5efb 67bd
00000200: 2837 c73c 2496 5e3d d08e 21bc 405e 84ba
00000210: 484f 63bc e4f2 513d 0892 57bd 3430 aabc
00000220: 5d04 93bd bc82 ab3c d851 31bc 00d5 403c
00000230: 180f 17bc 7901 72bd 8ccd debc 98a3 2f3c
00000240: d85f 783d baa3 4dbd 6ffa 85bd ea38 dcbc
00000250: c80b 7dbd 620d 8dbc fcb5 64bd 5014 443c
00000260: b076 b43b 1e35 8b3d 70d5 aa3b fa61 863d
00000270: 447c dbbc 7f3e 1fbd 049f 3ebd 28d0 0b3c
00000280: c692 b0bc 310f 6fbd 8058 0a3a 6018 5d3d
00000290: 96b5 40bd 56b2 d6bc 302b 023d 6ae2 183d
000002a0: 2c69 bf3c 4f3e 57bd e04f dd3b f6a2 67bd
000002b0: 50f1 6c3d 9c11 4a3d 5843 6b3d 79bd 80bd
000002c0: 34b4 1c3d c627 22bd 0e46 14bd 8025 333c
000002d0: 18a3 3c3d 7969 17bd a250 ebbc 340f d43c
000002e0: 78f8 c03c 96a5 f4bc 98df 243c 0075 4e3d
000002f0: 683e 123c f6c9 94bc 780e 8e3c b04e e63c
00000300: 4ee2 253d fc13 5abd a107 77bd 18b5 20bd
00000310: aa66 343d d0c1 6a3d 8037 fdba f02a c23c
00000320: 4a95 18bd 4032 f23a ec69 d43c 2b84 0cbd
00000330: f054 3a3c 883e 423c 28e7 663d 725f 373d
00000340: 59fb 1dbd e4e5 9d3c 70fd 38bc e69a 87bc
00000350: 6dc4 8abd 1c44 663d 08cf 18bc 1418 f63c
00000360: 4c7c b23c 11f4 8cbd 42c4 0c3d 7c42 33bd
00000370: 9495 e93c 93f7 49bd d80f 5e3d befc 293d
00000380: fc66 72bd b43c 863c 3c77 5bbd 0859 73bd
00000390: e804 5e3d 5084 763c 6ac7 233d 8c1f 903d
000003a0: 989a a63c 40ee 42bd 2f35 07bd a05d 003c
000003b0: c2b9 77bd 8f72 80bd a0ca 183b 2c8e 35bc
000003c0: 0297 083d 9666 55bd a088 1bbc c6ae 843d
000003d0: 679d 8cbd 18eb 91bd d849 6c3d 20e5 29bb
000003e0: ca41 57bd 20e6 b1bb c054 b73a 341f 2b3d
000003f0: 4c37 863d c41f f8bc 724e 373d 4ab5 80bc

linear1.bias f4 [256]
0.051372953 -0.02670689 0.031170867 -0.01903066 0.0699147 -0.041240677 -0.055883348 0.0030993968
-0.039738588 -0.042593643 -0.06255126 0.027755432 0.037646547 -0.051806763 -0.010198392 -0.048592947
-0.02532268 -0.06835827 -0.03679047 -0.046185378 -0.03253254 0.026992574 -0.06183039 -0.0023907945
-0.05342686 0.04362449 0.00431747 0.027736433 0.023153514 -0.032243405 0.063258186 0.0036611632
0.022173613 -0.05803116 -0.0354018 0.029326469 0.021792412 0.053544566 -0.055407353 0.059297487
-0.019517161 0.05336605 0.0720658 -0.050330758 -0.023744285 -0.024908204 -0.0030068085 -0.050005082
-0.0026212856 0.02110155 -0.06814268 0.029818662 0.04643037 0.062239155 0.025571585 0.069992915
-0.04722277 -0.06721879 -0.02393606 0.06615606 -0.02108787 0.009597816 0.027907945 -0.040565457
0.009239696 -0.022095174 -0.04928311 0.009188764 0.04727768 0.009960555 0.07104352 0.026428975
-0.0663832 0.0048070177 0.066746056 0.019641347 -0.06208015 0.004043594 -0.027813233 0.0664241
-0.060484767 0.037723765 -0.030749682 0.026711218 0.038193904 0.053898394 -0.055946704 -0.035139356
0.0049765036 -0.019064382 0.06317508 0.033809736 -0.03231825 0.0075952113 -0.058876097 -0.026746422
0.053170383 0.044890665 -0.03779328 -0.010705613 -0.007614672 -0.029857814 0.06878714 -0.051215008
-0.034931444 0.055171087 0.0017218962 -0.06896025 -0.002058819 0.045649342 0.062052682 -0.06264207
0.050317176 0.07144129 -0.0019304156 0.0495594 -0.013824251 0.023090564 -0.056141436 0.008216828
0.021735616 0.028233789 0.07074709 -0.058508284 0.06902957 0.038067296 0.026695058 -0.06307689
0.059194773 -0.051402412 0.04889477 0.033600986 -0.035449434 -0.03163165 0.009404518 -0.0017715245
-0.024981622 0.040132403 -0.033801235 -0.03157437 -0.024868853 -0.016201768 -0.05222214 -0.033371985
0.0042253435 0.004492037 0.06906584 -0.046099104 -0.05759196 0.049784444 0.04174894 -0.06621234
-0.011534125 -0.047097627 -0.00039183348 -0.05825025 0.00054346025 -0.018656947 0.034250304 0.030545786
0.023561835 0.033876672 0.03561227 0.023505636 -0.05444721 -0.029118683 0.055998698 0.022586226
0.034674525 0.066815704 -0.0050278753 0.071394935 0.059685543 0.004142046 0.034501098 0.01513882
0.047663666 0.052924752 0.031059347 0.03947717 -0.029867332 0.0066657215 0.001183264 -0.038319767
0.029002361 0.046936147 0.010642171 -0.048984684 -0.066256724 0.071280986 0.0012775734 0.033820525
-0.018946417 -0.022013202 0.017227016 0.0568628 -0.05610756 -0.024542224 0.031256333 -0.055670723
-0.046394583 -0.006625481 -0.038155567 0.020355329 0.025144637 -0.00079715997 -0.054745868 0.06929159
0.06577551 0.056350335 -0.06613643 0.060415268 0.064712256 0.019141234 0.035955988 0.03233794
-0.036067072 -0.036086567 -0.0100217685 -0.006696619 -0.043756947 -0.05481299 0.0014911965 -0.025799047
0.034640655 -0.0052778497 0.06932689 -0.0016599447 0.021857902 -0.056888685 -0.029065564 0.067696825
-0.06958396 -0.0678592 0.04780408 0.059566095 -0.058339138 -0.046768744 0.022152618 -0.04262771
-0.06839696 -0.040436916 0.0075484067 -0.04925843 0.036418356 -0.017229933 0.06635538 0.039211385
-0.044195674 -0.008764334 0.025438197 0.018759996 0.03290972 0.064516604 -0.039626833 0.028764814
00000000: 726c 523d 68c8 dabc 0c5a ff3c 30e6 9bbc
00000010: 702f 8f3d fceb 28bd f0e5 64bd 401f 4b3b
00000020: eec4 22bd ac76 2ebd e01a 80bd 5c5f e33c
00000030: 4433 1a3d 5433 54bd 2817 27bc 6609 47bd
00000040: 8271 cfbc 6cff 8bbd 9bb1 16bd e12c 3dbd
00000050: d740 05bd 881f dd3c dd41 7dbd e0ae 1cbb
00000060: 20d6 5abd 98af 323d 9079 8d3b 8437 e33c
00000070: 70ac bd3c a911 04bd 828d 813d 20f0 6f3b
00000080: 70a5 b53c 15b2 6dbd 7a01 11bd 103e f03c
00000090: 0086 b23c 8c51 5b3d d2f2 62bd ece1 723d
000000a0: 74e2 9fbc 5c96 5a3d 3c97 933d a027 4ebd
000000b0: 6083 c2bc 4a0c ccbc e00d 45bb 21d2 4cbd
000000c0: e0c9 2bbb 28dd ac3c 648e 8bbd 4446 f43c
000000d0: c62d 3e3d 7cee 7e3d 807b d13c 7258 8f3d
000000e0: aa6c 41bd 01aa 89bd 8e15 c4bc d47c 873d
000000f0: 78c0 acbc 2840 1d3c 349f e43c f727 26bd
00000100: 1862 173c f000 b5bc 16dd 49bd 788c 163c
00000110: 3ea6 413d 9831 233c 447f 913d 9481 d83c
00000120: eaf3 87bd 3084 9d3b 28b2 883d e4e6 a03c
00000130: c147 7ebd 2080 843b 94d8 e3bc 5c09 883d
00000140: e0be 77bd 3c84 1a3d c2e6 fbbc 7cd1 da3c
00000150: 3671 1c3d 90c4 5c3d 5f28 65bd 49ee 0fbd
00000160: f011 a33b e82c 9cbc f061 813d 147c 0a3d
00000170: 2460 04bd 40e1 f83b 1028 71bd 501b dbbc
00000180: 30c9 593d 46df 373d 20cd 1abd 9866 2fbc
00000190: 8084 f9bb 6098 f4bc 46e0 8c3d d4c6 51bd
000001a0: 4614 0fbd 14fb 613d 40b1 e13a 083b 8dbd
000001b0: 40ed 06bb cefa 3a3d f42a 7e3d 7c4a 80bd
000001c0: 6219 4e3d d04f 923d 0006 fdba ccfe 4a3d
000001d0: 1c7f 62bc 6c28 bd3c 90f4 65bd e09f 063c
000001e0: e40e b23c 8c4a e73c dae3 903d 62a6 6fbd
000001f0: 605f 8d3d 74ec 1b3d 98af da3c 752e 81bd
00000200: 3876 723d 568b 52bd e245 483d 30a1 093d
00000210: 6d33 11bd 3090 01bd 6815 1a3c 8032 e8ba
00000220: 42a6 ccbc e061 243d 2a73 0abd 2054 01bd
00000230: c4b9 cbbc 92b9 84bc e2e6 55bd 10b1 08bd
00000240: c074 8a3b f031 933b 6472 8d3d 6ad2 3cbd
00000250: 8ce5 6bbd c6ea 4b3d f000 2b3d 569a 87bd
00000260: a0f9 3cbc 71e9 40bd 006f cdb9 d097 6ebd
00000270: 0077 0e3a 74d6 98bc 0c4a 0c3d 283b fa3c
00000280: c004 c13c 44c2 0a3d 2cde 113d e48e c03c
00000290: 0a04 5fbd 4e8a eebc e45e 653d c006 b93c
000002a0: e006 0e3d acd6 883d e0c0 a4bb 8237 923d
000002b0: d478 743d 00ba 873b 0651 0d3d d008 783c
000002c0: fa3a 433d a0c7 583d 2c70 fe3c d0b2 213d
000002d0: 56ac f4bc 206c da3b c017 9b3a 30f5 1cbd
000002e0: 5c96 ed3c 1e40 403d 805c 2e3c 2aa4 48bd
000002f0: 9bb1 87bd c4fb 913d 4074 a73a 6487 0a3d
00000300: 8435 9bbc 0855 b4bc ac1f 8d3c f8e8 683d
00000310: 0ad1 65bd c60c c9bc a406 003d fc06 64bd
00000320: 3f08 3ebd 901a d9bb 0349 1cbd 38c0 a63c
00000330: 20fc cd3c 80f8 50ba 343d 60bd c0e8 8d3d
00000340: 50b5 863d 9ccf 663d 8972 87bd 0076 773d
00000350: dc87 843d 14ce 9c3c 9646 133d ca74 043d
00000360: 11bb 13bd 82cf 13bd 5832 24bc 506f dbbb
00000370: 7c3a 33bd 9683 60bd 4074 c33a 8658 d3bc
00000380: 5ce3 0d3d d0f1 acbb 42fb 8d3d 8092 d9ba
00000390: 580f b33c 1c04 69bd e81a eebc a2a4 8a3d
000003a0: 0982 8ebd c4f9 8abd 36ce 433d 94fb 733d
000003b0: 05f5 6ebd 9590 3fbd 6879 b53c 659a 2ebd
000003c0: b513 8cbd 2ea1 25bd a058 f73b 35c3 49bd
000003d0: 6a2b 153d ca25 8dbc 54e5 873d 1e9c 203d
000003e0: 8606 35bd 4898 0fbc c463 d03c 90ae 993c
000003f0: 58cc 063d 4821 843d bf4f 22bd 30a4 eb3c

linear2.weight f4 [256, 256]
-0.051715963 -0.043350227 0.0046227872 -0.016975157 -0.013337053 0.018555596 0.038149618 -0.013428219
0.059134834 0.028682068 -0.019752115 0.031192236 -0.021017715 0.02400203 0.051157348 0.040469475
0.051793247 -0.053025626 0.014427617 -0.03883066 0.000923045 -0.036887027 -0.03040146 0.026349463
-0.03574176 0.045553416 -0.043460615 0.016183905 -0.013372935 -0.014211357 -0.0020811185 0.013535306
-0.05043438 -0.03215149 -0.02827537 -0.04200135 -0.04325775 0.003052108 -0.021226898 -0.013357244
-0.01368922 -0.00076232105 -0.048188888 0.050284907 0.062335066 -0.057264693 -0.012060709 0.050388195
-0.044636793 -0.009956002 0.054900013 0.033636212 -0.043491974 0.014307737 0.008168556 0.012795165
-0.038581528 0.05067327 0.052609496 -0.010693677 0.002451472 0.048303932 -0.05563113 -0.009480983
-0.0043423846 0.02156385 -0.0009079799 -0.0058098435 -0.042556994 0.05365275 0.021415867 0.012477346
0.01016809 -0.055845186 0.038967542 0.0019227192 -0.036697626 -0.05694396 -0.00505244 0.032356948
-0.051301926 -0.01861015 0.030390002 0.028159752 0.0421808 -0.04971599 0.013011396 0.04893744
-0.029912665 0.0073074847 0.034507535 0.03398668 -0.0026613548 0.04607694 -0.060060427 -0.014544621
-0.032780595 0.055583887 -0.041905716 -0.057216957 0.012126617 0.00702063 0.0073298663 0.0060593784
0.042729802 0.019026838 0.03906858 0.025269784 -0.034233794 0.020281374 0.059899725 -0.032048076
0.040761806 0.053386614 0.03585846 0.034996122 -0.018052764 0.04050392 -0.039364487 0.023688264
-0.0112970695 -0.042484 -0.00954102 0.004624568 -0.011076011 0.0025339052 0.05697131 0.028414764
-0.022359267 0.035301447 0.0044817403 0.050433546 0.006962225 0.055517063 0.057101846 -0.0201099
-0.017794594 0.024870634 0.061627418 -0.007930897 0.046672724 -0.02677875 0.014383249 0.009172194
-0.029121235 -0.017725356 0.050720684 -0.053276166 0.033221617 -0.055185452 -0.034809478 0.005694449
0.035452522 -0.012803644 0.016187094 -0.054236837 -0.009261563 0.04825537 -0.00807032 -0.022152126
0.054378502 0.031652167 0.012402654 -0.010010414 0.041748643 0.002502665 -0.01424402 0.0023745373
-0.012376808 0.03848418 0.026256166 0.016373113 0.053115204 0.05996895 -0.027722664 0.051813588
-0.04421314 -0.019945785 0.05496963 0.04898625 0.017490469 -0.028672554 -0.036627993 -0.05792778
0.012662694 0.038398527 -0.0150628835 0.029505752 0.047209598 -0.013586484 -0.020963252 0.055006668
0.031244874 0.05682315 0.016724676 0.025025599 0.02440922 -0.046406545 0.03715519 -0.059065245
-0.047154933 0.055609137 0.061748393 -0.032847352 -0.036234498 0.025037013 0.055428177 0.03171724
0.038925216 0.013848603 0.043054104 -0.05185552 0.06152031 -0.013549715 -0.047536343 0.027093366
-0.00588955 -0.046947755 0.009752467 -0.03721504 -0.009913318 -0.054427773 0.040200055 0.060300328
-0.026717268 -0.057718508 0.044372447 0.048344888 0.044573173 0.0057965145 0.0038284808 -0.042670302
-0.014163204 0.021094687 0.023749739 -0.04245679 -0.002395764 0.035146385 -0.001143299 0.014354646
-0.012409389 -0.013000861 0.056241617 -0.05933959 -0.039583385 0.027141884 -0.06216912 -0.018358096
-0.03070239 0.038007878 -0.004061669 0.058460727 -0.027401187 0.018269494 -0.058259852 -0.024474025
00000000: 1ed4 53bd 0290 31bd c07a 973b 7c0f 8bbc
00000010: a883 5abc e801 983c c642 1c3d 0802 5cbc
00000020: 5e37 723d a8f6 ea3c 30cf a1bc dc86 ff3c
00000030: 582d acbc e89f c43c 5e8a 513d 52c3 253d
00000040: 2825 543d 6631 59bd d061 6c3c e60c 1fbd
00000050: 80f8 713a da16 17bd 7c0c f9bc d4da d73c
00000060: f465 12bd 3896 3a3d c203 32bd 1c94 843c
00000070: 281a 5bbc c0d6 68bc 6063 08bb 30c3 5d3c
00000080: 4894 4ebd 48b1 03bd c0a1 e7bc 9c09 2cbd
00000090: 0a2f 31bd e005 483b 08e4 adbc 58d8 5abc
000000a0: c048 60bc 80d6 47ba b661 45bd 8cf7 4d3d
000000b0: 0e53 7f3d 628e 6abd 489a 45bc da63 4e3d
000000c0: 12d5 36bd 801e 23bc d6de 603d 20c6 093d
000000d0: a424 32bd 006b 6a3c 68d5 053c d0a2 513c
000000e0: aa07 1ebd c68e 4f3d 0e7d 573d 8834 2fbc
000000f0: e0a8 203b 58da 453d 78dd 63bd 2056 1bbc
00000100: 904a 8ebb aca6 b03c 8005 6eba 8060 bebb
00000110: 3e50 2ebd fcc2 5b3d 5470 af3c c86d 4c3c
00000120: 1098 263c ecbd 64bd 6e9c 1f3d c003 fc3a
00000130: 4050 16bd 123e 69bd f08e a5bb b888 043d
00000140: f821 52bd 5074 98bc 74f4 f83c 48af e63c
00000150: c6c5 2c3d fea2 4bbd c02d 553c a072 483d
00000160: 680b f5bc a073 ef3b c657 0d3d 9e35 0b3d
00000170: 206a 2ebb 2cbb 3c3d ec01 76bd 904c 6ebc
00000180: f244 06bd eeab 633d 54a5 2bbd 545c 6abd
00000190: b8ae 463c 500d e63b 602f f03b c08d c63b
000001a0: 7205 2f3d 2cde 9b3c 6006 203d 9402 cf3c
000001b0: bc38 0cbd 2025 a63c 6a59 753d d844 03bd
000001c0: daf5 263d ecab 5a3d 52e0 123d 1858 0f3d
000001d0: 64e3 93bc 70e7 253d a83c 21bd e40d c23c
000001e0: 5817 39bc b403 2ebd f051 1cbc b089 973b
000001f0: 2878 35bc e00f 263b c05a 693d 14c6 e83c
00000200: c82a b7bc 4098 103d 90db 923b 6893 4e3d
00000210: 6023 e43b dc65 633d a0e3 693d 84bd a4bc
00000220: f8c5 91bc 80bd cb3c 086d 7c3d 98f0 01bc
00000230: e62b 3f3d 1c5f dbbc b8a7 6b3c f846 163c
00000240: a88f eebc c434 91bc 7ec0 4f3d 1c38 5abd
00000250: 6413 083d 240a 62bd 6294 0ebd 8098 ba3b
00000260: aa36 113d 60c6 51bc cc9a 843c 7227 5ebd
00000270: d0bd 17bc 6ca7 453d 6039 04bc 6078 b5bc
00000280: febb 5e3d b4a5 013d 8034 4b3c b802 24bc
00000290: a000 2b3d c003 243b c05f 69bc 209e 1b3b
000002a0: 18c8 4abc 96a1 1d3d 2c17 d73c e820 863c
000002b0: 548f 593d 00a2 753d a41a e3bc 7c3a 543d
000002c0: d618 35bd 5865 a3bc d627 613d cea5 483d
000002d0: 2c48 8f3c b4e2 eabc 3c07 16bd ae45 6dbd
000002e0: 3077 4f3c c647 1d3d 50ca 76bc 0cb6 f13c
000002f0: da5e 413d d899 5ebc 20bb abbc ac4e 613d
00000300: 40f5 ff3c 64bf 683d 3002 893c 7c02 cd3c
00000310: d8f5 c73c ca14 3ebd 0a30 183d 66ee 71bd
00000320: 8825 41bd 68c6 633d e2eb 7c3d f28a 06bd
00000330: a06a 14bd 6c1a cd3c a808 633d f0e9 013d
00000340: 0c70 1f3d 40e5 623c 8059 303d 7466 54bd
00000350: b8fc 7b3d a0ff 5dbc 78b5 42bd e8f2 dd3c
00000360: 20fd c0bb 4a4c 40bd d0c8 1f3c cc6e 18bd
00000370: 786b 22bc a8ef 5ebd d0a8 243d 7afd 763d
00000380: 2cde dabc 3e6a 6cbd e2bf 353d 4a05 463d
00000390: 5c92 363d b0f0 bd3b 40e7 7a3b 0ec7 2ebd
000003a0: c80c 68bc c4ce ac3c d08e c23c 2ce7 2dbd
000003b0: 4002 1dbb a8f5 0f3d c0da 95ba c02f 6b3c
000003c0: c050 4bbc 9001 55bc 9c5d 663d 120e 73bd
000003d0: 3022 22bd a858 de3c 0ca5 7ebd b863 96bc
000003e0: 9483 fbbc 26ae 1b3d c017 85bb 8474 6f3d
000003f0: 7478 e0bc e8a9 953c e2a1 6ebd c07d c8bc

linear2.bias f4 [256]
0.009273924 0.004995711 -0.024596542 0.008144982 0.02166316 0.0077812225 0.010451801 0.032105006
0.023478486 -0.03550709 -0.006493628 -0.055710606 0.0090205 -0.057488993 0.05634667 0.025752798
0.01842463 0.0013542622 -0.0019593984 -0.022178613 0.011462674 -0.028286055 0.061243765 -0.034169182
-0.014573969 -0.051772 -0.009372093 0.0054626986 0.008667752 -0.013220601 0.056792736 0.034115143
0.0558976 0.0055681467 0.0065564513 -0.039743952 0.046209477 0.025830753 -0.054323904 0.01402951
-0.0333115 0.028607912 0.04005228 -0.032867953 0.05864744 0.033559047 0.004794456 0.018463321
0.0053886026 -0.031556442 -0.016096301 0.06180162 0.016998388 0.04800109 0.009654783 -0.03812182
0.040426984 0.008517727 -0.054273956 -0.04064533 0.004045509 -0.0419958 0.021721683 0.035112873
-0.023262061 -0.03296811 0.024325997 0.04248227 0.018923327 -0.052329235 0.010819323 -0.01895015
-0.01561898 0.054270253 -0.05527108 0.02450946 -0.05408632 -0.036667407 0.0139500275 -0.035756208
0.046473004 0.052813604 -0.016116634 0.04954376 -0.055369988 -0.04347781 -0.047851674 0.0119505
0.02466552 0.05243861 -0.0014637038 -0.052346475 -0.05131668 0.05100856 0.003252238 0.038886055
0.06118983 0.023114234 0.029669285 0.013640843 -0.0037182644 -0.058583282 -0.041993164 -0.023285016
0.019393355 -0.05160042 0.025136419 -0.02918782 0.033728085 -0.03668222 -0.021405704 0.026791416
-0.019381464 0.022070616 -0.046377704 -0.0040082633 0.026266001 0.049716055 -0.02936209 -0.03010156
-0.06108261 0.054810636 -0.0033502206 0.010552809 0.06207835 -0.004581429 -0.050777614 0.04867085
0.042550713 0.026864886 0.055103563 -0.059056066 0.02824226 0.030302234 -0.0008209646 -0.01705838
0.022260725 0.052958757 -0.06167846 0.036224112 -0.010064043 0.023876376 0.034274787 -0.04386182
0.008023992 0.024047323 0.050071523 0.04584536 0.020907447 0.041187793 -0.062049948 0.03275484
0.048068613 0.012560487 -0.030583441 0.040144406 0.03367562 0.024950072 0.041182548 0.056404486
-0.049394272 0.010515615 -0.048703745 -0.052006416 -0.0070376843 -0.010454342 -0.03560488 0.048230827
0.01813022 -0.03892772 0.045113675 -0.044288196 0.046121255 0.013810478 -0.03919305 0.036590435
-0.060692765 -0.020406954 -0.04339286 -0.041587435 -0.043603636 -0.00857041 0.04778499 -0.00032105297
0.036330573 0.01806137 -0.049187563 0.056798525 -0.021418244 0.039138906 0.021108918 -0.012359999
0.045047037 -0.029563852 0.022538826 0.024112068 0.0134097785 -0.049946718 -0.05114431 0.017081484
-0.037381805 0.023245797 -0.061219133 -0.009951949 0.06206411 0.04461799 0.06104827 -0.05429218
0.050998166 0.018110216 0.0058211163 0.034864552 -0.010227479 0.01800944 0.032839 0.022636361
0.03395319 -0.00083073974 0.018279836 -0.014096074 -0.007971443 -0.031756528 0.024757862 0.015619278
-0.041830897 -0.05110339 -0.015577115 -0.05823019 0.060727984 0.03234361 -0.037728645 0.056685865
-0.013542719 0.05384682 0.019824207 -0.013280921 0.041159198 0.0046120584 -0.015378021 0.05116061
0.0438997 0.0500457 -0.03671273 0.056148835 -0.05819989 0.021744825 0.005381152 0.022939347
0.041429803 0.006057307 -0.021599382 0.00872916 -0.05253721 -0.05737757 0.029477261 0.02074445
00000000: a8f1 173c 10b3 a33b b07e c9bc 8872 053c
00000010: f076 b13c a0f9 fe3b 083e 2b3c 8a80 033d
00000020: f455 c03c e26f 11bd 80c8 d4bb ce30 64bd
00000030: b8ca 133c 9479 6bbd c4cb 663d 88f7 d23c
00000040: 40ef 963c 8081 b13a 4069 00bb ecaf b5bc
00000050: f0cd 3b3c 28b8 e7bc beda 7a3d fcf4 0bbd
00000060: a8c7 6ebc e00e 54bd 688d 19bc 7000 b33b
00000070: 3003 0e3c 389b 58bc 809f 683d 52bc 0b3d
00000080: e2f4 643d 0075 b63b 80d7 d63b 8eca 22bd
00000090: 2646 3d3d 049b d33c be82 5ebd 08dc 653c
000000a0: a471 08bd 245b ea3c dc0d 243d 8ca0 06bd
000000b0: 4c38 703d 3675 093d d01a 9d3b 6440 973c
000000c0: e092 b03b 5441 01bd 64dc 83bc b223 7d3d
000000d0: 3440 8b3c ca9c 443d 182f 1e3c a025 1cbd
000000e0: c496 253d f08d 0b3c 5e4e 5ebd b87b 26bd
000000f0: 3090 843b ca03 2cbd acf1 b13c 84d2 0f3d
00000100: 1490 bebc 9209 07bd 5047 c73c e401 2e3d
00000110: 1805 9b3c 2e57 56bd 8843 313c 583d 9bbc
00000120: c0e6 7fbc 7c4a 5e3d ee63 62bd 10c8 c83c
00000130: 9e89 5dbd 9030 16bd a88e 643c 1a75 12bd
00000140: 7a5a 3e3d 1453 583d 0807 84bc 66ee 4a3d
00000150: a4cb 62bd ca15 32bd 1e00 44bd 08cc 433c
00000160: 580f ca3c dec9 563d c0d9 bfba 4269 56bd
00000170: 7031 52bd 5aee 503d 8023 553b fc46 1f3d
00000180: 30a2 7a3d 105a bd3c 000d f33c d87d 5f3c
00000190: 20ae 73bb 06f5 6fbd 0601 2cbd 38c0 bebc
000001a0: d0de 9e3c f65a 53bd e4ea cd3c 4c1b efbc
000001b0: 7626 0a3d 1840 16bd 045b afbc ac79 db3c
000001c0: e0c5 9ebc 70cd b43c 8cf6 3dbd c057 83bb
000001d0: cc2b d73c 10a3 4b3d c488 f0bc 8c97 f6bc
000001e0: c231 7abd 1e81 603d 608f 5bbb b0e5 2c3c
000001f0: de45 7e3d d01f 96bb 30fc 4fbd 165b 473d
00000200: a849 2e3d c013 dc3c 46b4 613d c6e4 71bd
00000210: 505c e73c 643c f83c 0036 57ba 04be 8bbc
00000220: 205c b63c 48eb 583d 8ea2 7cbd bc5f 143d
00000230: a8e3 24bc 6498 c33c b863 0c3d 74a8 33bd
00000240: 1077 033c e4fe c43c cc17 4d3d 58c8 3b3d
00000250: 1846 ab3c 88b4 283d 1628 7ebd f029 063d
00000260: 98e3 443d 80ca 4d3c 208a fabc 766e 243d
00000270: 72ef 093d 1864 cc3c 08af 283d 6408 673d
00000280: a651 4abd b049 2c3c 947d 47bd ae04 55bd
00000290: 609c e6bb b048 2bbc 6cd6 11bd b08d 453d
000002a0: d485 943c ac72 1fbd 1ec9 383d 8a67 35bd
000002b0: a4e9 3c3d 5845 623c e488 20bd dadf 153d
000002c0: fa98 78bd 7c2c a7bc b6bc 31bd 9657 2abd
000002d0: ba99 32bd e86a 0cbc 32ba 433d 0053 a8b9
000002e0: 5ecf 143d 70f5 933c e678 49bd 92a5 683d
000002f0: 5075 afbc 1e50 203d 9cec ac3c 9881 4abc
00000300: 3e83 383d e42f f2bc 58a3 b83c ac86 c53c
00000310: b0b4 5b3c ee94 4cbd b27c 51bd 78ee 8b3c
00000320: aa1d 19bd f86d be3c eac0 7abd 800d 23bc
00000330: f036 7e3d 5ac1 363d c00d 7a3d 7a61 5ebd
00000340: 74e3 503d e05b 943c 10bf be3b 22ce 0e3d
00000350: 2891 27bc 8888 933c 3082 063d e46f b93c
00000360: 8012 0b3d 00c6 59ba 98bf 953c 38f3 66bc
00000370: a89a 02bc 2213 02bd 00d1 ca3c 00e8 7f3c
00000380: e056 2bbd ca51 51bd 2837 7fbc c882 6ebd
00000390: e8bd 783d bc7a 043d 5a89 1abd 702f 683d
000003a0: 48e2 5dbc 7c8e 5c3d 6066 a23c 3898 59bc
000003b0: 8c96 283d c020 973b 18f4 7bbc ca8d 513d
000003c0: 2cd0 333d b8fc 4c3d 1660 16bd 52fc 653d
000003d0: 0263 6ebd 3422 b23c 6054 b03b 4ceb bb3c
000003e0: 4cb2 293d 607c c63b 30f1 b0bc c004 0f3c
000003f0: 4231 57bd be04 6bbd 4c7a f13c 44f0 a93c

linear3.weight f4 [1, 256]
0.016953662 -0.04678128 0.041255474 0.04713788 0.018197432 -0.030419216 0.05661165 -0.049143933
0.031498045 -0.01940649 0.038677983 0.032915764 0.042755358 -0.061092958 -0.022100955 0.00867746
-0.045275643 0.01293166 -0.009047419 0.059837118 0.0056166574 -0.017780595 -0.0009097904 -0.05340364
-0.04668244 -0.009092025 -0.033158295 0.030740224 0.061410286 -0.02046471 0.01113683 -0.021440804
0.024043687 -0.049647704 -0.033737347 0.02121666 0.020465896 -0.06191165 -0.021458313 0.0031717718
0.059389025 0.017330803 0.03616301 -0.014871262 0.027624033 0.0473215 0.023343258 -0.011178054
0.024105698 0.009754576 0.05611039 0.051140085 -0.049737126 -0.008282512 0.057102613 -0.053727046
0.02816473 0.005800143 0.011425205 0.04451455 -0.038448453 0.051576935 0.059425697 -0.05736632
0.0053830743 -0.05186826 -0.025914505 0.024259627 -0.0075859874 0.0034977198 0.008222811 -0.043987706
0.023414895 -0.059595115 0.037764527 -0.012982704 -0.03846447 -0.0003912449 -0.023895122 0.02390474
0.055019215 -0.015019715 -0.05982054 0.062445156 -0.026433684 0.02228196 0.03843487 0.025393315
-0.033362962 0.048262626 -0.055120602 0.04192906 0.000685215 0.054305762 0.021266147 0.050220467
-0.002959609 0.024261393 0.03193467 0.061480798 -0.048553012 -0.010114685 0.062025025 0.015500583
-0.05869226 -0.031928778 -0.004385166 -0.025292918 -0.029894635 -0.034736462 -0.0047948584 0.005395867
0.032816745 -0.040960185 -0.052611522 0.022853196 0.011329472 0.016628347 -0.05126065 0.025671728
0.020324536 -0.0012029409 -0.023516648 -0.050326824 -0.0039509013 -0.012731686 0.030616604 0.010607533
0.016170628 -0.06019833 0.0077242553 0.03961701 -0.038337626 0.058769375 0.03319984 -0.023870826
0.05653531 -0.038916685 0.033045694 -0.018849641 -0.039347127 -0.012796856 0.0007176623 0.033170775
0.0478765 0.059000097 -0.06209506 -0.0028065518 -0.03893491 -0.050876968 -0.057547472 -0.025432475
-0.032946244 -0.04610537 -0.043205544 -0.026340961 0.0015305877 -0.013120934 -0.0054969117 0.04826068
-0.054103427 0.0453429 -0.027145013 -0.051874235 0.015816584 -0.02763477 -0.058901027 0.0027135462
0.03899897 0.013843887 0.040268585 -0.060911536 -0.024997778 -0.058150522 0.009131685 0.0501708
-0.062017538 0.033095956 0.021626435 0.011895895 0.0087052435 -0.0117326155 0.016735919 -0.058588006
-0.044180498 0.052287556 -0.033635728 -0.04772421 -0.05523864 -0.029872619 -0.05612506 0.044269152
0.004808016 -0.05098378 0.03169641 -0.057088964 0.060774453 0.030547813 0.038127676 -0.0424408
0.03346938 -0.037559994 0.008663036 -0.013030194 0.021992669 -0.0044275895 0.05631122 -0.043651737
-0.0001879558 -0.049757592 0.010690592 0.003517881 -0.04435599 0.05911526 -0.06150534 -0.002779454
0.056730755 -0.044163182 -0.031166181 0.037240565 0.029328622 0.0043006763 0.049027637 -0.061038844
0.03754116 0.038859896 0.019479662 0.014914528 0.03868056 -0.044009387 -0.05395715 -0.0043024793
0.0423475 0.010924771 0.044771455 0.04262632 -0.0009884313 0.04232686 -0.014156304 -0.017311767
0.02522926 0.057704315 0.022737049 -0.022837445 0.061835833 0.01626499 0.040506892 -0.002437681
0.049856417 0.048962608 0.05676076 0.054601878 -0.0609224 -0.0294668 -0.02879081 0.04180737
00000000: 68e2 8a3c ba9d 3fbd 80fb 283d a613 413d
00000010: c812 953c b831 f9bc 9ee1 673d 264b 49bd
00000020: 1804 013d 5cfa 9ebc ce6c 1e3d aed2 063d
00000030: 3e20 2f3d 9c3c 7abd 100d b5bc e82b 0e3c
00000040: f472 39bd 50df 533c a03b 14bc c417 753d
00000050: f00b b83b 9ca8 91bc 007f 6eba c6bd 5abd
00000060: 1636 3fbd b8f6 14bc fed0 07bd ecd2 fb3c
00000070: 5a89 7b3d 9ca5 a7bc 4077 363c a0a4 afbc
00000080: 44f7 c43c 645b 4bbd 2c30 0abd 90ce ad3c
00000090: 18a8 a73c 1297 7dbd 58c9 afbc 80dd 4f3b
000000a0: e841 733d 54f9 8d3c aa1f 143d 98a6 73bc
000000b0: cc4b e23c 30d4 413d 5c3a bf3c 2824 37bc
000000c0: 5079 c53c a8d1 1f3c 02d4 653d 4478 513d
000000d0: 28b9 4bbd 60b3 07bc 6ee4 693d e410 5cbd
000000e0: b8b9 e63c 200f be3b c830 3b3c e454 363d
000000f0: 207c 1dbd 5642 533d 5c68 733d f2f8 6abd
00000100: 8064 b03b d073 54bd a84a d4bc 20bc c63c
00000110: e093 f8bb 003a 653b f8b8 063c 742c 34bd
00000120: 98d0 bf3c 021a 74bd faae 1a3d 68b5 54bc
00000130: ec8c 1dbd 0020 cdb9 b4bf c3bc e0d3 c33c
00000140: d45b 613d 4015 76bc 6206 75bd 7ec6 7f3d
00000150: 748b d8bc a888 b63c e26d 1d3d a405 d03c
00000160: 9aa7 08bd 08af 453d 24c6 61bd cebd 2b3d
00000170: 00a0 333a b86f 5e3d 5836 ae3c fab3 4d3d
00000180: 00f6 41bb d4bf c63c eecd 023d 4ad3 7b3d
00000190: 86df 46bd 10b8 25bc f40d 7e3d 28f6 7d3c
000001a0: 4c67 70bd c0c7 02bd 70b1 8fbb 1833 cfbc
000001b0: 98e5 f4bc d247 0ebd 301e 9dbb d0cf b03b
000001c0: da6a 063d dec5 27bd 2e7f 57bd a036 bb3c
000001d0: 409f 393c 2c38 883c b0f6 51bd 844d d23c
000001e0: a47f a63c 00ac 9dba fca5 c0bc 8023 4ebd
000001f0: 9076 81bb 9098 50bc accf fa3c 38cb 2d3c
00000200: 4478 843c 8692 76bd c01b fd3b 7245 223d
00000210: ea07 1dbd 28b8 703d 8efc 073d c08c c3bc
00000220: 9291 673d 1a67 1fbd ec5a 073d 906a 9abc
00000230: 742a 21bd e8a9 51bc 8021 3c3a 14de 073d
00000240: 261a 443d 16aa 713d 6457 7ebd 20ee 37bb
00000250: 367a 1fbd 5e64 50bd e6b6 6bbd c457 d0bc
00000260: a4f2 06bd fcd8 3cbd 4cf8 30bd 00c9 d7bc
00000270: 009e c83a 30f9 56bc 701f b4bb feac 453d
00000280: 8e9b 5dbd 7ab9 393d 385f debc 147a 54bd
00000290: c891 813c 5062 e2bc 3442 71bd c0d5 313b
000002a0: 62bd 1f3d 78d1 623c acf0 243d 607e 79bd
000002b0: 24c8 ccbc 3e2f 6ebd 109d 153c e67f 4d3d
000002c0: 1a06 7ebd a08f 073d ec29 b13c 00e7 423c
000002d0: 70a0 0e3c 283a 40bc c419 893c faf9 6fbd
000002e0: 9cf6 34bd 7a2b 563d 9ec5 09bd 767a 43bd
000002f0: ea41 62bd 6cb7 f4bc 64e3 65bd 9253 353d
00000300: 908c 9d3b 5ed4 50bd 18d4 013d 1ed6 69bd
00000310: a2ee 783d 683f fa3c c42b 1c3d 68d6 2dbd
00000320: 3017 093d 82d8 19bd 68ef 0d3c 987c 55bc
00000330: f829 b43c 5015 91bb 98a6 663d 2acc 32bd
00000340: 0016 45b9 9ece 4bbd 9827 2f3c 408c 663b
00000350: a0ae 35bd d822 723d 06ed 7bbd 8027 36bb
00000360: 825e 683d 74e4 34bd 3850 ffbc 9089 183d
00000370: 9442 f03c b0ec 8c3b 34d1 483d de03 7abd
00000380: c2c4 193d 8e2b 1f3d d093 9f3c 105c 743c
00000390: 826f 1e3d 3043 34bd 2c02 5dbd d0fb 8cbb
000003a0: 9274 2d3d d0fd 323c 4662 373d f098 2e3d
000003b0: 408e 81ba ee5e 2d3d d8ef 67bc 68d1 8dbc
000003c0: 98ad ce3c 5c5b 6c3d 0c43 ba3c 9815 bbbc
000003d0: 9247 7d3d 283e 853c 8eea 253d 80c1 1fbb
000003e0: 3e36 4c3d 048d 483d f87d 683d 38a6 5f3d
000003f0: c489 79bd 5c64 f1bc b4da ebbc 343e 2b3d
